src/choirless_smiler/smile_detector.tflite (tflite, 318996 bytes, 11 tensors)

sequential/conv2d/BiasAdd/ReadVariableOp f4 [64]
0	0xbbdd3a8e	-0.006751365
1	0xbc006728	-0.007837094
2	0xbbb370d0	-0.005476095
3	0xbc8c6084	-0.017135866
4	0xbc405217	-0.011738322
5	0x3e2456ef	0.16048788
6	0xbd66b70c	-0.05632691
7	0xbc258a59	-0.010103785
8	0x3d4c0ebc	0.04981874
9	0xbc02a127	-0.007972992
10	0xbd374191	-0.044740263
11	0x3d1b592d	0.03792684
12	0xbc1331d9	-0.008984053
13	0xbd0d17ed	-0.034446646
14	0xbc238230	-0.00997977
15	0xbc384ae1	-0.011248321
16	0xbd917324	-0.071020395
17	0xbd44d218	-0.048051924
18	0xbc53ed73	-0.01293503
19	0x3dd68b61	0.10475803
20	0x3be282cb	0.0069125644
21	0x3e19edca	0.15032116
22	0xbd47d217	-0.04878434
23	0xbdc5a385	-0.096503295
24	0xbd6a22ff	-0.05716228
25	0x3bd61e84	0.0065343995
26	0xbc46f2ff	-0.012142896
27	0x3c800b58	0.01563041
28	0xbbfb9449	-0.007677589
29	0xbbd3dddb	-0.006465656
30	0xbdeb7fc0	-0.11498976
31	0x3d41fef7	0.047362294
32	0x3ba67b6d	0.0050806315
33	0x3e08ec23	0.13371329
34	0x3c9d7054	0.019218601
35	0x3dff6773	0.12470903
36	0xbd3d9e7f	-0.04629373
37	0xbd8a06eb	-0.06739601
38	0xbc1614d0	-0.0091602355
39	0xbc8c14f2	-0.017099831
40	0x3c66a86f	0.014078244
41	0x3e11ba7a	0.14231291
42	0xbb8229b7	-0.003972258
43	0x3d94ee5c	0.07272026
44	0xbcab81ca	-0.020935912
45	0x3d2d3b83	0.042293083
46	0xbe206696	-0.15664133
47	0xbc6126e0	-0.013742179
48	0xbcc0074f	-0.023440985
49	0x3de65a5f	0.11247706
50	0x3c113a74	0.008864034
51	0xbc6f0667	-0.014588929
52	0x3c9acb13	0.018895661
53	0x3c54c5ea	0.0129866395
54	0x3e163894	0.1467002
55	0xbc400ba3	-0.011721524
56	0xbd2ca4fb	-0.042149525
57	0xbc0b82e5	-0.008515094
58	0xbc4fc9df	-0.012682407
59	0x3c4282ba	0.011871988
60	0xbcdd7bee	-0.027036633
61	0xbd7c798d	-0.061639357
62	0x3ad0a96b	0.0015919631
63	0x38c4e854	9.389283e-05

sequential/conv2d_1/BiasAdd/ReadVariableOp f4 [64]
0	0xbcb8a4a2	-0.02253944
1	0xbd1c614d	-0.03817873
2	0xbdde2109	-0.10846145
3	0x3c056215	0.00814106
4	0xbcb8af9c	-0.022544675
5	0x3cc504e0	0.024050176
6	0xbbd755f1	-0.0065715243
7	0x3caceb7e	0.021108385
8	0x3c6c54c6	0.014424508
9	0xbd04c4eb	-0.032414358
10	0xbd933afc	-0.07188985
11	0x3cb02679	0.02150272
12	0x3bf20e4c	0.007386958
13	0xbd0bea02	-0.034158714
14	0xbd159a52	-0.036524124
15	0xbc8f8204	-0.017518051
16	0x3cc63a60	0.024197757
17	0xbd2e75ed	-0.04259293
18	0x3ca31069	0.019905286
19	0x3c09418c	0.008377444
20	0xbc09f801	-0.008420945
21	0xbcc75a04	-0.024334915
22	0xbd3f7361	-0.046740893
23	0x3b5f968f	0.003411684
24	0xbcd61416	-0.026132625
25	0xbd47a162	-0.04873789
26	0xbd06519a	-0.032792665
27	0xbd4ba5c2	-0.049718626
28	0x3ce30532	0.027712438
29	0xbc8ea5ae	-0.017412987
30	0xbd364ae0	-0.044505
31	0xbcca70f0	-0.024712056
32	0x3c7aee1b	0.015315558
33	0x3b04aeab	0.0020245712
34	0x3d2f7a5b	0.042841297
35	0xbd130e7b	-0.03590248
36	0x3d50f292	0.051012583
37	0xbd016769	-0.03159276
38	0xbc289e35	-0.010291626
39	0x3b1bd11b	0.002377576
40	0x3c9df9df	0.019284187
41	0x3d0551d0	0.032548726
42	0xbd311fb4	-0.043243125
43	0xbd0ba945	-0.034096975
44	0x3c197f39	0.009368711
45	0xbb1496e2	-0.002267294
46	0xbce621ca	-0.028092284
47	0x3c947018	0.018119857
48	0x3c9effa6	0.019409012
49	0xbb9c0f00	-0.0047625303
50	0x3c99a37a	0.01875471
51	0xbc64ec08	-0.01397229
52	0xbd80f264	-0.06296232
53	0x3ba241cb	0.004951691
54	0xbc9fde64	-0.019515224
55	0x3d1310be	0.03590464
56	0xbcf8ead1	-0.030385407
57	0x3c70450c	0.0146649
58	0x3a7973ce	0.00095158524
59	0xbbeb3815	-0.0071783164
60	0xbc4c13b2	-0.012455868
61	0xbda4e725	-0.080519
62	0xbcfa6222	-0.030564371
63	0xbc7f89a6	-0.015596783

sequential/conv2d_2/BiasAdd/ReadVariableOp f4 [64]
0	0xbd40f97a	-0.04711292
1	0xbce89065	-0.028389165
2	0xbc71f1e7	-0.014767147
3	0xbd047b7c	-0.032344326
4	0x3ce01594	0.02735404
5	0x3ca694c2	0.020334605
6	0xbca4ab8c	-0.020101331
7	0xbca00e5c	-0.019538097
8	0xbd231921	-0.039818887
9	0xbcde267d	-0.027117962
10	0x3c2743f5	0.010209073
11	0xbcb93eb9	-0.022612916
12	0xbcb1002c	-0.021606527
13	0xbce43085	-0.027855167
14	0x3d1264d8	0.035740703
15	0x3cde1530	0.027109712
16	0x3cbeb178	0.023277983
17	0x3ca81888	0.02051951
18	0xbd2a9881	-0.041649345
19	0xbcaeb765	-0.021327684
20	0xbd1d3ad1	-0.03838617
21	0xbb5fd7e4	-0.003415578
22	0xbcadbf31	-0.021209331
23	0x3d24fb34	0.04027863
24	0xbc36f78e	-0.01116742
25	0xbc8a20b6	-0.0168613
26	0xbcfa20ad	-0.03053316
27	0xbc82c9ca	-0.015965361
28	0xbc4c4697	-0.012468002
29	0xbd9787bd	-0.07398937
30	0xbcdd898e	-0.02704313
31	0xbcad1873	-0.021129822
32	0xbcec7c84	-0.028867967
33	0xbc5a47e2	-0.013322802
34	0x3c3934ce	0.0113040935
35	0xbce535c2	-0.027979735
36	0xbcb7cc6e	-0.022436347
37	0xbc3cbf19	-0.011520171
38	0x3c311680	0.010808587
39	0xbcbd1f18	-0.023086116
40	0x3d2c8401	0.042118076
41	0xbca37e43	-0.019957667
42	0xbc986521	-0.01860291
43	0xbc0197ea	-0.007909754
44	0xbc208eca	-0.009799669
45	0x3c3bcaac	0.011461895
46	0xbc5e6612	-0.01357414
47	0xbceed455	-0.029153982
48	0x3b5e9b26	0.0033966987
49	0xbc088b3e	-0.008333979
50	0xbb216cb5	-0.0024631445
51	0xbd194b07	-0.037425067
52	0xbc7da63e	-0.01548153
53	0x3c85980e	0.016307857
54	0xbc298906	-0.01034761
55	0x3c9bf47f	0.019037483
56	0x3d346bc8	0.0440481
57	0x3c980530	0.018557161
58	0xbc1e6795	-0.009668251
59	0xbc610262	-0.013733478
60	0x3ccb9ca9	0.024854975
61	0xbc628bbb	-0.01382726
62	0xbcd51a94	-0.02601365
63	0x3c1d4420	0.009598762

sequential/dense/BiasAdd/ReadVariableOp f4 [32]
0	0x3d72008c	0.059082553
1	0xbcb58628	-0.022158697
2	0x3d425724	0.047446385
3	0x3c7439a9	0.014906325
4	0x3d1450a8	0.036209732
5	0x3c2feb12	0.0107371975
6	0x3ce90b84	0.028447874
7	0xbca670b0	-0.020317405
8	0x3c4bd70d	0.012441409
9	0x3cd2108f	0.025642661
10	0x3d2b536c	0.041827604
11	0x3c550efd	0.013004062
12	0x3dcaf49d	0.099099375
13	0xbb7a13e2	-0.0038158824
14	0x3d412f18	0.047164053
15	0x3d97a14f	0.07403814
16	0x3dac1dd9	0.084041305
17	0x3d958167	0.07300072
18	0x3d9748a1	0.073869
19	0x3e08d906	0.13364038
20	0x3d7f0444	0.062259927
21	0x3db6ba72	0.0892228
22	0x3d12ba68	0.035822302
23	0x3d4387a6	0.047736786
24	0x3d8e350d	0.069437124
25	0x3d4697a0	0.048484445
26	0xbd4936f9	-0.04912469
27	0x3da2fe0c	0.07958612
28	0x3d3a63ae	0.04550522
29	0x3c617dba	0.013762886
30	0x3d268a95	0.040659506
31	0x3d90392f	0.07042157

sequential/dense_1/BiasAdd/ReadVariableOp f4 [32]
0	0x3e468162	0.19385293
1	0xbdb82884	-0.08992103
2	0x3ce9c762	0.028537456
3	0x3db84cba	0.089990094
4	0xbd42b174	-0.047532514
5	0x3d1600fa	0.036622025
6	0x3e197367	0.14985429
7	0x3e120392	0.14259174
8	0x3da5b68b	0.08091458
9	0x3e02f856	0.12790045
10	0xbcaa704d	-0.020805502
11	0x3e1b2484	0.15150648
12	0x3dfeeda4	0.1244767
13	0x3b51851f	0.0031970215
14	0x3d60bf8a	0.054870166
15	0x3d895177	0.06704991
16	0x3dadce11	0.0848657
17	0x3d64fd41	0.055905584
18	0x3ddff182	0.10934736
19	0x3c5a0c2d	0.013308567
20	0xbd432eec	-0.04765217
21	0x3ccfe1aa	0.02537616
22	0x3db9c799	0.09071273
23	0x3da32a92	0.07967104
24	0xbb686bac	-0.0035464568
25	0x3dc4d89b	0.09611627
26	0x3df0b5ad	0.11753402
27	0xbd0740a0	-0.033020616
28	0x3e1b23f9	0.15150441
29	0x3e04b21b	0.12958567
30	0x3dab8bbf	0.08376264
31	0x3da7dfe9	0.08197004

sequential/dense/MatMul f4 [32, 64]
0	0xbe690974	-0.22757512
1	0xbdb052a3	-0.08609512
2	0xbe123757	-0.14278923
3	0x3d02221d	0.031770814
4	0xbe2b1747	-0.16708098
5	0x3e3ba7fc	0.183258
6	0xbdcff5c9	-0.10154302
7	0x3d84218e	0.064517125
8	0xbe2464d3	-0.16054086
9	0x3e5e3ad7	0.21702133
10	0x3e01823f	0.12647341
11	0xbe21149e	-0.15730521
12	0xbd722fc2	-0.059127577
13	0x3e5dc539	0.21657266
14	0x3e97dc3e	0.2966022
15	0x3e50cb81	0.2039013
16	0xbe56124f	-0.20905422
17	0x3e554260	0.20826101
18	0xbe756ab7	-0.2396649
19	0x3e0f6db3	0.1400669
20	0x3e3e1c40	0.18565464
21	0x3df8bfec	0.12145981
22	0x3d6390d3	0.055558037
23	0x3e28c326	0.16480693
24	0xbe2cd8ce	-0.1687958
25	0x3db67d88	0.08910662
26	0x3d202b9e	0.039104097
27	0xbe56f4d5	-0.20991834
28	0xbda0ac9e	-0.07845424
29	0xbe5e441b	-0.21705668
30	0x3cea4319	0.028596448
31	0xbdd6d5db	-0.104900084
32	0x3d6f939d	0.058490384
33	0xbe6f706d	-0.23382731
34	0x3c5cde63	0.0134807555
35	0xbceec82e	-0.029148187
36	0xbe3ccdfc	-0.18437952
37	0xbe6f6ef6	-0.23382172
38	0x3cf537e6	0.029933881
39	0xbe567669	-0.20943607
40	0x3dd0ea00	0.10200882
41	0x3da87257	0.082249336
42	0x3cf9d0cd	0.030495072
43	0xbc35ce89	-0.011096605
44	0x3e03ff52	0.12890366
45	0x3d316764	0.04331149
46	0x3e54c373	0.20777683
47	0xbcc28b3c	-0.023748033
48	0x3a81255d	0.0009853054
49	0x3e25c716	0.16189227
50	0xbe798be0	-0.24369764
51	0x3e2c5b13	0.16831617
52	0x3be03dc2	0.0068432996
53	0xbe64cea9	-0.2234446
54	0x3e6ca024	0.23107964
55	0x3d062e45	0.03275897
56	0x3e51c0a8	0.20483649
57	0x3d762391	0.060092513
58	0x3d68ee68	0.056867987
59	0xbddcef9d	-0.1078789
60	0xbe098f54	-0.13433582
61	0xbd43d582	-0.04781104
62	0x3e49b6f6	0.196987
63	0x3dbb0f62	0.091337934
64	0x3e56e927	0.20987378
65	0x3cd71212	0.026253734
66	0x3dedead2	0.11617054
67	0xbdf46460	-0.119332075
68	0xbdb62326	-0.08893423
69	0x3af695e7	0.0018812985
70	0xbe4e0e0d	-0.20122547
71	0xbe46af80	-0.19402885
72	0x3e1b7422	0.1518102
73	0xbcaae37d	-0.020860428
74	0xbb83f531	-0.004027032
75	0x3dcc1431	0.09964789
76	0x3e039b10	0.1285212
77	0xbd6f9a05	-0.058496494
78	0x3e0ab77d	0.13546558
79	0xbe0f99a3	-0.14023452
80	0xbd840908	-0.06447035
81	0xbdd6d2c0	-0.10489416
82	0xbd9219b0	-0.07133806
83	0x3de5bc38	0.112175405
84	0x3e320ca7	0.17387639
85	0x3e1d38ca	0.15353695
86	0xbc7b424b	-0.01533563
87	0x3d8cfa74	0.06883708
88	0x3e843cd7	0.25827667
89	0x3d16b62c	0.036794826
90	0xbe547a4b	-0.20749776
91	0xbe66d0d3	-0.22540598
92	0x3d033ba4	0.0320393
93	0xbe5f9468	-0.21833956
94	0xbe0a4fd7	-0.13507019
95	0x3e44d4ae	0.19221756
96	0x3e285565	0.16438825
97	0xbd85f86b	-0.065415226
98	0xbd5e79f5	-0.054315526
99	0xbe415997	-0.18881832
100	0xbcd64b66	-0.026159
101	0xbd0aca8a	-0.033884563
102	0xbe1b4f54	-0.1516698
103	0xbb9d324c	-0.0047972556
104	0xbe4454bc	-0.19172949
105	0xbe18e899	-0.14932479
106	0xbd122461	-0.035679225
107	0x3e4e84c7	0.20167838
108	0x3e4a8a96	0.19779429
109	0xbddb9224	-0.107212335
110	0x3e2e6625	0.17031153
111	0xbdeacf16	-0.1146528
112	0xbd8eaf7b	-0.06967064
113	0x3da6d4ae	0.08146034
114	0xbd283255	-0.041063625
115	0xbe6c6038	-0.2308358
116	0xbdbc10f5	-0.09182922
117	0xbe096ead	-0.13421126
118	0xbe42ccb7	-0.19023405
119	0x3bb85b4e	0.0056261187
120	0xbdcefb4f	-0.10106527
121	0x3e953bce	0.2914719
122	0xbe8ef513	-0.27921352
123	0xbde0b32e	-0.10971676
124	0x3d6ff388	0.05858186
125	0x3db14b1d	0.08656905
126	0x3d56d88d	0.052452613
127	0x3df1d78a	0.11808689
128	0x3e6392e3	0.22224002
129	0xbe0e0276	-0.13868126
130	0x3e2172a7	0.15766393
131	0xbdc4c89c	-0.09608576
132	0x3dcac325	0.09900502
133	0xbe581e93	-0.21105413
134	0xbc6bcf2f	-0.014392658
135	0xbdfebc36	-0.12438242
136	0xbe20f92d	-0.15720053
137	0x3d834c3a	0.064110234
138	0x3d0b6fdf	0.034042235
139	0x3e822daf	0.2542548
140	0xbd225997	-0.03963622
141	0x3e006086	0.12536821
142	0x3cb314d3	0.021860516
143	0xbe0ce766	-0.13760146
144	0xbe08afc3	-0.13348298
145	0x3e822c6c	0.25424516
146	0xbdb3a97c	-0.08772561
147	0xbdb279cb	-0.087146364
148	0xbd851c8b	-0.06499585
149	0xbe4e615d	-0.20154329
150	0xbe702f6b	-0.23455589
151	0x3e25a743	0.16177087
152	0x3d99111e	0.07473968
153	0xbcade81a	-0.021228839
154	0xbe0a4dac	-0.13506192
155	0x3e677d3f	0.22606371
156	0xbe2bcaef	-0.16776632
157	0xbe36a9ba	-0.17838183
158	0xbdec14be	-0.11527394
159	0xbe790a65	-0.24320371
160	0x3e5130d6	0.20428786
161	0xbda9c24f	-0.082890145
162	0x3de1a55a	0.110178664
163	0x3df9e45d	0.1220176
164	0x3e0b4cbf	0.13603495
165	0xbe73471f	-0.237576
166	0x3cc2f992	0.023800645
167	0x3e4fdb65	0.20298536
168	0x3dd84b97	0.105612926
169	0x3e4832fa	0.19550696
170	0x3d984468	0.074349225
171	0x3ccf9905	0.02534152
172	0x3e48596a	0.19565359
173	0x3e81ebd0	0.25375223
174	0x3e399a80	0.18125343
175	0x3db696fe	0.08915518
176	0x3ddec54f	0.108774774
177	0xbda4f207	-0.080539756
178	0xbe5ec3ab	-0.21754329
179	0x3e2ed47a	0.17073241
180	0xbcd91825	-0.02650077
181	0x3d796452	0.06088669
182	0x3d8ea8bb	0.069657765
183	0x3d7b99bd	0.061425913
184	0x3e48d742	0.19613364
185	0xbe212fe8	-0.15740931
186	0x3dec36b8	0.11533874
187	0xbd5b4019	-0.053527925
188	0xbe384f55	-0.17999013
189	0xbe3027b0	-0.1720264
190	0xbdcb3812	-0.09922804
191	0xbb86de44	-0.0041158516
192	0xbe6ba45b	-0.23011915
193	0xbdaddd6a	-0.08489497
194	0xbe8aad5e	-0.27085394
195	0xbe2d896a	-0.1694695
196	0xbe6d65c0	-0.23183346
197	0x3d09b6e0	0.03362167
198	0xbe43c7a0	-0.1911912
199	0xbe597271	-0.21235062
200	0xbe34a8b0	-0.17642474
201	0xbe243c65	-0.16038664
202	0xbdcaf706	-0.09910397
203	0xbe65271e	-0.22378203
204	0x3df91fed	0.121642925
205	0xbdc51a46	-0.09624152
206	0xbe26f5da	-0.16304722
207	0xbe361035	-0.1777962
208	0x3d6a9d21	0.057278756
209	0xbdc7378b	-0.09727391
210	0xbd73ab02	-0.059489258
211	0x3d63a317	0.055575456
212	0x3dbfa4be	0.09357594
213	0x3e15f51a	0.1464428
214	0x3c77966d	0.015111548
215	0x3e7befea	0.24603239
216	0xbe1994b9	-0.1499814
217	0xbdfbaa7b	-0.12288376
218	0xbd6c0fc3	-0.05763222
219	0x3e3a58f6	0.18197998
220	0xbda776c7	-0.08176952
221	0xbe8bd167	-0.273082
222	0xbd24e18a	-0.040254153
223	0xbd78fbb7	-0.06078693
224	0xbe524439	-0.20533837
225	0xbde1258a	-0.10993488
226	0x3e236d56	0.15959677
227	0xbdbfc0bc	-0.09362933
228	0x3e18420d	0.14868946
229	0xbd56db0a	-0.052454986
230	0x3dbc9503	0.09208109
231	0x3c203446	0.009778088
232	0xbdf91e5b	-0.12163993
233	0xbc99f8a7	-0.018795324
234	0x3e6769ca	0.22598949
235	0x3cf8e5df	0.030383049
236	0xbd5c797b	-0.05382679
237	0xbe62e165	-0.22156294
238	0xbe3ccd0c	-0.18437594
239	0x3c7818c7	0.015142626
240	0xbce0ad89	-0.027426498
241	0x3d83214e	0.06402837
242	0xbde46b59	-0.111532874
243	0xbe6acb4a	-0.22929111
244	0x3d9d7499	0.07688255
245	0xbc1028e7	-0.008798814
246	0x3d86d00c	0.065826505
247	0xbe529c0b	-0.20567338
248	0x3dd6665a	0.10468741
249	0x3dd4a5bf	0.10383176
250	0x3dba5ef6	0.091001436
251	0x3e4da905	0.20084007
252	0x3e285140	0.16437244
253	0x3e1ffff7	0.15624987
254	0x3cf5a242	0.029984597
255	0x3e1f4492	0.15553501

sequential/dense_1/MatMul f4 [32, 32]
0	0xbd97b47a	-0.0740747
1	0x3d82dd98	0.06389922
2	0x3d85313a	0.0650353
3	0xbddad3c4	-0.10684922
4	0x3e72ffe5	0.23730429
5	0xbe726a5a	-0.23673382
6	0xbe8aded6	-0.27123135
7	0x3da01a0f	0.0781747
8	0x3ea5a9c1	0.32356074
9	0x3dd3b662	0.10337521
10	0xbdc47631	-0.09592856
11	0x3f08be26	0.53415143
12	0xbdbb27ac	-0.09138426
13	0x3e324cb9	0.1741208
14	0xbeae6786	-0.34063357
15	0xbdc19e31	-0.09454001
16	0x3e42bcd0	0.19017339
17	0xbb9d06be	-0.0047920635
18	0x3ec2b989	0.38032177
19	0x3db68901	0.0891285
20	0x3dd9d46d	0.1063622
21	0xbe3e974e	-0.18612406
22	0xbe27e0db	-0.1639437
23	0x3d53410c	0.051575705
24	0xbe104177	-0.14087473
25	0xbc943bd9	-0.018094944
26	0x3e948352	0.2900644
27	0xbd0c04b4	-0.034184173
28	0xbd90dd5f	-0.07073473
29	0x3eedd511	0.4645162
30	0xbe81125f	-0.2520933
31	0xbcef71c4	-0.029229052
32	0x3dafa4a8	0.085763276
33	0xbe23283c	-0.15933317
34	0x3d6b4390	0.05743748
35	0x3e486e07	0.19573222
36	0xbe6eaebb	-0.23308842
37	0x3deeed39	0.116663404
38	0xbe975e8b	-0.29564318
39	0x3d91cf6a	0.07119639
40	0xbe50e7cc	-0.20400923
41	0x3e411d0b	0.18858735
42	0xbe05f70e	-0.13082525
43	0xbeb74b05	-0.35799423
44	0xbe6eee85	-0.23333175
45	0xbe1df8ca	-0.15426937
46	0x3c861b25	0.016370365
47	0x3e319abc	0.17344183
48	0x3ce1316e	0.02748939
49	0xbcecfbd8	-0.028928682
50	0x3e64b429	0.2233435
51	0x3e43d734	0.19125062
52	0xbdfb0d52	-0.122584
53	0xbe8eb104	-0.27869427
54	0xbde10e32	-0.10989036
55	0xbe7a0412	-0.24415615
56	0xbe818f9c	-0.25304878
57	0x3dd28c23	0.10280635
58	0x3e952111	0.2912679
59	0x3dbcdc10	0.09221661
60	0xba04b7e5	-0.0005062803
61	0xbb375d55	-0.0027979214
62	0xbdd28077	-0.10278409
63	0xbe801d57	-0.25022385
64	0xbd9b52f6	-0.07584183
65	0xbe628436	-0.22120747
66	0x3df836b7	0.12119811
67	0xbde8287a	-0.11335845
68	0xbcc17e19	-0.023619698
69	0x3df4ff83	0.119627975
70	0xbe9d8f5b	-0.30773434
71	0x3e4aa520	0.19789553
72	0x3ec5aef2	0.38610035
73	0xbe1854ac	-0.1487605
74	0x3cacf5c5	0.021113286
75	0x3e3662f5	0.17811187
76	0xbe476608	-0.19472516
77	0x3e1eb615	0.15499146
78	0xbeba0038	-0.36328292
79	0x3e154f11	0.14580943
80	0x3b8330e7	0.0040036323
81	0xbc29b965	-0.010359143
82	0xbdc0d5b2	-0.09415759
83	0x3e7c9373	0.24665622
84	0x3dbf70eb	0.09347709
85	0xbe756583	-0.23964505
86	0xbe8460bc	-0.25855052
87	0xbc5f710f	-0.013637795
88	0xbcc40f82	-0.023933176
89	0xbe45e00d	-0.1932375
90	0x3d84c524	0.06482914
91	0x3e495f91	0.19665362
92	0xbddb7301	-0.10715295
93	0x3ee443d1	0.4458299
94	0xbec31c43	-0.381075
95	0x3e929aba	0.28633672
96	0x3e5c6991	0.21524645
97	0x3e93149a	0.28726655
98	0x3e9cdee2	0.30638796
99	0xbd41cd42	-0.04731489
100	0xbe8f09b7	-0.279371
101	0x3e2025c6	0.1563941
102	0xbc6c5b6f	-0.014426096
103	0x3e64f685	0.22359665
104	0x3e2465c7	0.1605445
105	0xbdbff149	-0.09372193
106	0x3d853c7a	0.065056756
107	0xbe1f206b	-0.1553971
108	0x3e331b39	0.17490853
109	0x3cab3538	0.0208994
110	0x3ea07238	0.31337142
111	0xbdd1e957	-0.10249584
112	0x3ec965df	0.39335534
113	0xbe2b1121	-0.16705753
114	0x3e197ba2	0.14988568
115	0x3e2df775	0.16988929
116	0x3d0ecdc8	0.034864217
117	0x3d85879b	0.06520005
118	0x3e4880b8	0.19580352
119	0x3e569142	0.20953849
120	0xbd4a78e2	-0.04943169
121	0xbe20b3d6	-0.15693602
122	0xbe8074a0	-0.25088978
123	0x3e96db1b	0.2946404
124	0x3cd0e6c7	0.025500668
125	0xbeaf1c47	-0.3420126
126	0x3e8f8d3e	0.28037447
127	0x3db40771	0.08790482
128	0x3d70a513	0.058751177
129	0xbdc1a1a7	-0.09454661
130	0xbe44edef	-0.1923139
131	0x3e8e50a6	0.27795905
132	0xbe972c7b	-0.29526123
133	0xbe689be9	-0.22715725
134	0xbe596977	-0.21231638
135	0x3e55a9dc	0.20865577
136	0x3dc3119e	0.095248446
137	0xbe14076d	-0.14455958
138	0x3e8072a4	0.25087464
139	0x3e6d2657	0.23159157
140	0xbd9110d1	-0.070832856
141	0x3dec79c8	0.115466654
142	0x3de7fb58	0.11327237
143	0x3d6d0a78	0.057871312
144	0xbdef7064	-0.11691359
145	0x3e96b4ea	0.294349
146	0x3e46564d	0.19368859
147	0xbeacbc0a	-0.33737212
148	0xbe874179	-0.2641714
149	0x3c452dc4	0.012034837
150	0xbe387878	-0.18014705
151	0xbe93093f	-0.28717992
152	0xbe8f8b19	-0.2803581
153	0xbe783aba	-0.24241152
154	0x3e7a51aa	0.24445215
155	0xbe48a070	-0.19592452
156	0x3e80fc5d	0.25192538
157	0xbe5eeb0e	-0.21769354
158	0xbdc69dd5	-0.09698073
159	0xbe40c363	-0.18824534
160	0xbae8c940	-0.0017760172
161	0xbda8a7b2	-0.0823511
162	0x3e8094e2	0.2511359
163	0x3e5d68b0	0.21621966
164	0xbd5ed66f	-0.05440372
165	0xbd9bd6bf	-0.07609319
166	0xbe2f578f	-0.17123245
167	0x3e6d504d	0.23175164
168	0xbe1f9b1d	-0.15586515
169	0xbe87a897	-0.2649581
170	0x3e1abeb7	0.15111814
171	0xbda9e5c5	-0.08295778
172	0xbe2f015e	-0.17090365
173	0xbe62c170	-0.22144103
174	0x3d2f1432	0.04274387
175	0xbda8db8b	-0.082449995
176	0x3ed13c28	0.40866208
177	0x3e9f101e	0.31066984
178	0xbe14e522	-0.14540532
179	0x3e8cacf6	0.2747571
180	0xbe0f498f	-0.13992904
181	0x3df4c876	0.119522974
182	0xbe3eea89	-0.18644156
183	0x3e9ec370	0.31008482
184	0xbbcec1e2	-0.0063097337
185	0x3d76c332	0.060244747
186	0xbd52cf06	-0.051466964
187	0x3d262a6b	0.040567797
188	0xbe127648	-0.14302933
189	0xbd9967cd	-0.074905016
190	0x3ded5380	0.11588192
191	0xbd2b89aa	-0.041879334
192	0x3e90ea5d	0.28303805
193	0xbdfb5d12	-0.12273611
194	0x3e28b960	0.16476965
195	0x3eb962f2	0.36208302
196	0xbe46bc83	-0.19407849
197	0xbe7695ea	-0.24080625
198	0x3d6125c2	0.05496765
199	0xbea046f0	-0.3130412
200	0xbdeb661d	-0.11494086
201	0x3e02fc06	0.12791452
202	0xbe386772	-0.18008211
203	0xbe85adca	-0.26109153
204	0x3e9cb3ef	0.30606028
205	0xbe74335d	-0.23847719
206	0x3d2c59d0	0.04207784
207	0x3dbf52e9	0.09341986
208	0xb98e563a	-0.00027148594
209	0xbd56e1cb	-0.052461427
210	0xbbfaecb1	-0.0076576103
211	0x3d621a12	0.055200644
212	0xbd53b970	-0.05169052
213	0x3e2f7ea5	0.17138155
214	0xbd02805e	-0.0318607
215	0x3ebff6ed	0.37493077
216	0x3ec3ecfe	0.38266748
217	0x3c61ee5e	0.013789741
218	0xbc98ec24	-0.018667288
219	0x3ed575da	0.41691476
220	0x3e58fa10	0.21189141
221	0xbd9ca465	-0.07648543
222	0x3e97911c	0.29602897
223	0x3e21b88c	0.15793055
224	0xbea40344	-0.3203374
225	0xbe7090ce	-0.23492739
226	0xbe918aaf	-0.2842612
227	0x3e27af12	0.16375378
228	0xbdab6065	-0.08367995
229	0x3e901bc3	0.2814618
230	0xbdefb14b	-0.11703738
231	0xbc48df79	-0.012260311
232	0x3e14f77e	0.14547536
233	0x3df5ef60	0.12008548
234	0xbe1ee950	-0.15518689
235	0x3d68ad46	0.05680587
236	0xbe642b2a	-0.22282091
237	0xbd99540d	-0.074867345
238	0xbe14768c	-0.14498347
239	0x3d8b3d6e	0.06798826
240	0xbda0a1db	-0.078433715
241	0x3cba4718	0.022738978
242	0x3e9dc3c3	0.30813417
243	0x3e5e64f0	0.21718192
244	0xbe9b6858	-0.30353045
245	0xbd9da1a3	-0.076968454
246	0x3e1e07e1	0.15432693
247	0x3d80b746	0.06284957
248	0x3caeb492	0.021326337
249	0x3ea681db	0.32520947
250	0x3c1c7b69	0.009550908
251	0x3c9e63a0	0.019334614
252	0xbe366530	-0.17812037
253	0x3f010b4d	0.5040787
254	0xbe93e5aa	-0.28886157
255	0x3ed9a39c	0.42507637

sequential/dense_2/MatMul f4 [1, 32]
0	0xbe45913e	-0.19293687
1	0x3b1363c5	0.0022489887
2	0xbed5bdac	-0.4174627
3	0x3dceb018	0.10092181
4	0x3e96e501	0.2947159
5	0x3e046c9d	0.12932058
6	0x3de61be0	0.112357855
7	0xbe69a773	-0.22817783
8	0xbe90f01c	-0.2830819
9	0xbe52baa8	-0.20579016
10	0xbe9dd2f3	-0.30825004
11	0xbe3f9354	-0.18708545
12	0x3ecfad3d	0.40561858
13	0xbe77a025	-0.24182184
14	0x3ebf146d	0.3732027
15	0x3eb8efea	0.3612054
16	0xbe4b5cfd	-0.19859691
17	0xbe698052	-0.22802857
18	0x3e8e6b12	0.27816063
19	0xbe577855	-0.21041997
20	0xbe43f186	-0.19135103
21	0xbe144540	-0.14479542
22	0x3ed5b673	0.4174076
23	0x3e836fcc	0.25671232
24	0xbdb4265c	-0.08796379
25	0x3e85f02c	0.261598
26	0x3e8d5c93	0.2760969
27	0xbd912f39	-0.07089085
28	0xbe869c86	-0.26291293
29	0x3e27abef	0.16374181
30	0x3ec892da	0.3917454
31	0xbe668b37	-0.22514044

sequential/conv2d/Conv2D f4 [64, 3, 3, 3]
0	0xbda4258a	-0.080149725
1	0xbd5b2b55	-0.05350812
2	0xbd193843	-0.03740717
3	0xbdac3ca5	-0.084100045
4	0xbdb7a8d2	-0.08967747
5	0xbd9a840b	-0.075447164
6	0xb9b35fbc	-0.00034212868
7	0x3c1f6bf7	0.009730331
8	0xbd558edf	-0.052138206
9	0x3a90ffff	0.0011062621
10	0xbcca3ae7	-0.02468629
11	0xbd9c00b6	-0.07617323
12	0xbdafdbea	-0.08586867
13	0x3d8b5c46	0.06804709
14	0xbd805aec	-0.06267342
15	0xbd91d8cc	-0.07121429
16	0xbdae6661	-0.08515621
17	0x3ccba68e	0.024859693
18	0x3d14895a	0.0362638
19	0xbcb775f3	-0.02239511
20	0x3cdced6a	0.026968677
21	0xbd561065	-0.05226173
22	0xbd60bc40	-0.05486703
23	0x3cc6d490	0.02427128
24	0xbad7c10b	-0.001646073
25	0x3dbe717d	0.0929899
26	0xbda8ce3a	-0.082424596
27	0xbd8dfd12	-0.06933035
28	0x3d924d49	0.07143647
29	0xbd484b98	-0.048900217
30	0xbd13d200	-0.036088943
31	0x3d8a3ad3	0.06749501
32	0xbd86b7aa	-0.06578
33	0xbd5f0d9b	-0.054456335
34	0xba4af8a0	-0.00077427365
35	0xbdba00ff	-0.09082221
36	0x3d82d03c	0.06387374
37	0xbdd0c145	-0.10193113
38	0x3a69eaab	0.0008923213
39	0x3b3cdc11	0.0028817693
40	0xbd8b6b36	-0.06807558
41	0xbd74278a	-0.05960802
42	0xbd340c97	-0.04395732
43	0xbd19404d	-0.037414838
44	0xbd2810df	-0.041031715
45	0xbdb4ed0b	-0.08834275
46	0xba3ede59	-0.0007281057
47	0x3d238e6d	0.03993075
48	0xbcbcc4b7	-0.02304302
49	0x3d8c2562	0.06843068
50	0x3c75dcd7	0.015006266
51	0xbdc744f0	-0.09729946
52	0x3ca774cc	0.020441435
53	0x3b56bea8	0.0032767449
54	0xbce5ed1e	-0.028067168
55	0x3caf71cd	0.02141657
56	0xbcc20173	-0.023682332
57	0xbd8efd42	-0.06981899
58	0x3d2458aa	0.04012362
59	0xbc5598fd	-0.0130369635
60	0xbd934aae	-0.071919784
61	0xbdbaa6eb	-0.09113868
62	0xbd8dc3e4	-0.06922129
63	0xbd209aa4	-0.039209977
64	0xbcb63946	-0.022244107
65	0xbd81305c	-0.06308052
66	0x3dab95a9	0.08378155
67	0xbd5782a6	-0.05261483
68	0xbd49a5cb	-0.049230378
69	0x3d8b6641	0.06806613
70	0xbd1be308	-0.03805831
71	0x3daf7f22	0.085691705
72	0xbd8a0a84	-0.06740287
73	0x3d5160e1	0.05111778
74	0xbc826f21	-0.015922131
75	0x3b689452	0.0035488796
76	0xbd249288	-0.040178806
77	0xbd3782de	-0.04480254
78	0xbd90101c	-0.070343226
79	0xbdbf38a6	-0.09336977
80	0xbc518b49	-0.012789556
81	0x3d8a7776	0.067610666
82	0xbdda55f5	-0.10660926
83	0xbc0ab65a	-0.008466328
84	0xbd223800	-0.039604187
85	0xbdcc521b	-0.09976598
86	0xbdadb9f9	-0.08482737
87	0x3d912803	0.0708771
88	0xbd53aafb	-0.05167673
89	0x3d9fda64	0.078053266
90	0x3c64384d	0.013929439
91	0x3d54694a	0.051858224
92	0xbd199909	-0.03749946
93	0xbdb21b38	-0.08696598
94	0xbb91c918	-0.004449021
95	0x3d8b2265	0.067936696
96	0x3d83bc0c	0.064323515
97	0xbd9a3eac	-0.07531485
98	0x3d1e9a8d	0.03872161
99	0xbb2ae085	-0.0026073765
100	0x3c971d9c	0.018446736
101	0xbd91cb0c	-0.07118806
102	0xbdd0dd52	-0.101984635
103	0x3d86a04f	0.06573545
104	0xbd937688	-0.072003424
105	0x3c81d0ff	0.015846727
106	0x3ca392f5	0.019967536
107	0xbd07d66c	-0.033163473
108	0xbdbd5f89	-0.092467375
109	0xbd889ca3	-0.06670501
110	0xbdb9cf80	-0.090727806
111	0x3a3e6c17	0.00072640314
112	0x3d8ff948	0.070299685
113	0xbde0c144	-0.109743625
114	0xbde288b7	-0.110612325
115	0x3da3b371	0.0799321
116	0xbd7ee637	-0.06223127
117	0xbd1fca40	-0.03901124
118	0xbdb17fa3	-0.08666923
119	0xbc9f9536	-0.019480329
120	0xbc28b065	-0.010295962
121	0x3c7359d2	0.014852958
122	0x3d145bd1	0.036220375
123	0xbdad4261	-0.084599264
124	0x3d8ec20e	0.06970607
125	0xbda079eb	-0.07835754
126	0x3d96f5c1	0.073710926
127	0xbbbcabaa	-0.0057577686
128	0x3c1a2014	0.009407062
129	0xbda2eb67	-0.07955056
130	0xba6e5721	-0.0009091963
131	0x3d4f30f3	0.05058379
132	0xbd751f12	-0.059844084
133	0x3d1a9005	0.037735004
134	0xbdb908e2	-0.090348974
135	0xbdbab4cc	-0.091165155
136	0xbdbd3864	-0.09239271
137	0xbda07c39	-0.078361936
138	0xbda7c8d9	-0.081926055
139	0xbd7271d3	-0.059190582
140	0x3dbbab74	0.091635615
141	0xbe154018	-0.14575231
142	0x3d699f8f	0.057036933
143	0xbd948269	-0.07251436
144	0xbe25015a	-0.16113797
145	0xbd8459d9	-0.064624496
146	0xbc63038c	-0.013855826
147	0xbd8e5bfa	-0.06951137
148	0x3d55f37d	0.05223416
149	0xbcb92096	-0.022598546
150	0xbe25218a	-0.16126075
151	0xbdeb6e57	-0.11495655
152	0x3bb436de	0.0054997047
153	0xbdce2df3	-0.10067358
154	0xbdfd2d12	-0.12362112
155	0x3cba8d1c	0.022772364
156	0xbe32fa7b	-0.17478363
157	0x3ccae0ca	0.02476539
158	0xbc685b06	-0.014181858
159	0xbdd87fc0	-0.105712414
160	0xbd4977ac	-0.049186394
161	0xbd85c4f4	-0.065317065
162	0xbdadf55b	-0.084940635
163	0xbd7abf8a	-0.061217822
164	0xbc6d0d36	-0.014468482
165	0xbd8fd808	-0.070236266
166	0xbd42102b	-0.0473787
167	0xbd12f25b	-0.03587566
168	0x3d7b7a9e	0.061396234
169	0x3d6da424	0.058017865
170	0x3d90d3b6	0.07071631
171	0xbc586917	-0.013208649
172	0x3cedf0f1	0.029045554
173	0xbd0b05d5	-0.03394111
174	0x3d5c416f	0.05377334
175	0x3c32a2a3	0.010903033
176	0xbd5f12b4	-0.054461196
177	0xbdd2454f	-0.10267126
178	0x3d9bbdee	0.076045856
179	0xbd42ed94	-0.047589853
180	0x3c95cddc	0.018286638
181	0xbd5363e4	-0.051608935
182	0x3d6b2ace	0.05741387
183	0xbc490d66	-0.012271261
184	0x3d9a8083	0.07544043
185	0x3ca5350a	0.020166893
186	0x3c93ee30	0.018057913
187	0xbd084967	-0.033273127
188	0x3cf9444e	0.030428078
189	0x3d86dc74	0.06585017
190	0xbdc8e120	-0.09808564
191	0xbcc027b2	-0.023456428
192	0xbd7dfc4b	-0.062008183
193	0x3d72738b	0.05919222
194	0x3d3fcf3a	0.046828486
195	0xbd80ca11	-0.06288541
196	0xbdc3b10a	-0.09555252
197	0x3d98709d	0.07443354
198	0xbdb56ddd	-0.088588454
199	0xbd07300a	-0.033004798
200	0xbb8d9117	-0.0043202746
201	0x3c5f033a	0.013611609
202	0x3d7c41d7	0.061586227
203	0x3da55669	0.08073122
204	0x3d175620	0.03694737
205	0xbd9a9614	-0.075481564
206	0x3af1c89c	0.0018446627
207	0x3cb26fa8	0.021781757
208	0x3d81890f	0.0632497
209	0xbd6b2228	-0.05740562
210	0xbdcc137a	-0.09964652
211	0xbdacbf0b	-0.08434876
212	0x3d848776	0.064711496
213	0xbbdd2bc0	-0.0067496
214	0x3be76165	0.007061171
215	0x3d2f0feb	0.04273979
216	0xbd84eba2	-0.06490256
217	0x3c10c855	0.008836825
218	0xbdf21174	-0.11819735
219	0x3d493d40	0.04913068
220	0xbbe04376	-0.0068439795
221	0xbd4a1a81	-0.049341682
222	0xbda4cbfe	-0.08046721
223	0xbd1113b1	-0.03541917
224	0xbdc96282	-0.09833242
225	0x3d461ce8	0.04836741
226	0xbd830012	-0.06396498
227	0xbdb0e736	-0.0863785
228	0x3d1e12c9	0.038592134
229	0xbd649e6a	-0.055815138
230	0xbd3446d4	-0.04401286
231	0xbd4d2650	-0.050085366
232	0xbcfa07a5	-0.030521223
233	0xbda8d7d4	-0.08244291
234	0x3d1b83d3	0.037967514
235	0x3d2f0a5b	0.042734485
236	0x3d842a21	0.06453348
237	0x3df595bc	0.1199145
238	0x3cfd1fbb	0.03089892
239	0xbd823fba	-0.06359811
240	0x3c826e74	0.015921809
241	0x3dab64e0	0.0836885
242	0x3d92bb2e	0.07164608
243	0xbcefbca8	-0.029264763
244	0x3b16b584	0.0022996375
245	0x3c9b61e7	0.018967582
246	0x3d26c2f9	0.040713284
247	0xbd9c150c	-0.07621202
248	0x3d915931	0.0709709
249	0xbd8296d4	-0.063764244
250	0x3b9af68d	0.004729098
251	0xbcdcbdb6	-0.02694593
252	0x3cf0fea1	0.029418292
253	0xbd6554cf	-0.055989083
254	0x3d2c4fd5	0.04206832
255	0xbaaad8ca	-0.0013034579

sequential/conv2d_1/Conv2D f4 [64, 3, 3, 64]
0	0x3d013caa	0.031551994
1	0x3badbcf3	0.0053020655
2	0x3d7f6ed5	0.062361557
3	0xbcdbdb35	-0.026837924
4	0x3d6d6d4f	0.057965573
5	0x3d3d1cec	0.04617016
6	0xbd937b88	-0.07201296
7	0xbc5bcfc5	-0.013416235
8	0x3bf56949	0.0074893576
9	0xbcf36150	-0.029709488
10	0xbd215cd0	-0.039395154
11	0xbd65cd5b	-0.056104045
12	0xbcb7e2a5	-0.02244694
13	0x3d02db40	0.031947374
14	0xbd28372b	-0.041068237
15	0xbdc1ec7c	-0.09468934
16	0x3d58892e	0.0528652
17	0x3c48b809	0.012250909
18	0x3c2f02ae	0.010681791
19	0x3ba763dc	0.0051083397
20	0xbcc3d480	-0.023905039
21	0x3cae6700	0.021289349
22	0xbd0a3877	-0.033745255
23	0x3c1c8b37	0.009554676
24	0xbd5bc1fc	-0.053651795
25	0xbd10b46c	-0.035328314
26	0xbd785e54	-0.060636833
27	0xbdbaa6c5	-0.0911384
28	0xbc456aae	-0.01204936
29	0x3bbf2979	0.0058338013
30	0x3d5df6bf	0.054190394
31	0x3d753bed	0.059871603
32	0x3c842499	0.016130732
33	0xbd3f762a	-0.04674355
34	0xbd90cfde	-0.070708975
35	0x3ba40fab	0.0050067506
36	0xbdbf9087	-0.09353738
37	0xbc2d4a50	-0.0105767995
38	0xbda79a09	-0.08183677
39	0xbc51f7e5	-0.01281545
40	0xbd5b089a	-0.053475
41	0x3d9e0d83	0.07717421
42	0xbad373df	-0.0016132555
43	0xbd8ac279	-0.06775374
44	0x3d5854b4	0.052815154
45	0x3d3d782e	0.04625719
46	0xbb266c36	-0.0025394089
47	0xbcbf6a0d	-0.023365999
48	0xbba3c526	-0.004997867
49	0xbdb42b44	-0.08797315
50	0xbc647219	-0.013943219
51	0x3d979c01	0.07402802
52	0xbd633563	-0.055470835
53	0xbd9a2d51	-0.07528175
54	0xbd3cc227	-0.046083596
55	0xbdb2dbf9	-0.08733363
56	0xbd7d834c	-0.061892793
57	0xbcd989e9	-0.026555018
58	0x3d1c7c26	0.038204335
59	0xbd93baf9	-0.072133966
60	0x3d11dbd4	0.035610035
61	0xbcade8b3	-0.021229124
62	0x3d227a5b	0.03966747
63	0xbd3e38dd	-0.046440948
64	0xbd89de21	-0.06731821
65	0x3d6b8da4	0.057508126
66	0x3c5630e0	0.013073176
67	0xbb96333f	-0.0045837457
68	0x3cdfd4f9	0.027323233
69	0xbd35ab98	-0.044353098
70	0xbd9ea82a	-0.077469185
71	0xbb0e5ddb	-0.0021723423
72	0xbd9e410c	-0.077272505
73	0x3d08162b	0.033224266
74	0xbd9bc101	-0.07605172
75	0xbd8c9927	-0.06865149
76	0xbd8d87e7	-0.06910687
77	0x3d13b996	0.03606566
78	0x3d21eeda	0.039534427
79	0xbdd53a13	-0.104114674
80	0x3d6b9da4	0.057523385
81	0xbd845405	-0.06461338
82	0xbd908243	-0.070560955
83	0xbd69b089	-0.057053123
84	0x3c9a08b4	0.018802978
85	0x3d1bf690	0.038076937
86	0xbbbbd4e2	-0.0057321647
87	0xbbab5e73	-0.005229765
88	0xbc3c8dbd	-0.011508402
89	0xbd9d08bc	-0.076676816
90	0x3d40d06d	0.04707377
91	0xbda34c53	-0.07973542
92	0x3d92e8ca	0.07173307
93	0x3d8d29d5	0.068927445
94	0xbd341baf	-0.043971714
95	0xbb846c6f	-0.0040412466
96	0xbda0b7bf	-0.07847547
97	0x3c3a59e1	0.011373968
98	0xbcfaed3a	-0.030630697
99	0xbd4662a3	-0.04843391
100	0xbd5c10b0	-0.053726852
101	0xbd23b69b	-0.039969068
102	0xbc7fea5d	-0.015619841
103	0xbd29b4f0	-0.04143232
104	0xbda8f8f9	-0.08250613
105	0xbda7551a	-0.08170529
106	0x3d660045	0.0561526
107	0xbc8c3a57	-0.017117662
108	0x3d3043de	0.043033473
109	0x3cadb5fe	0.021204945
110	0xbcc8eea9	-0.024527865
111	0x3c71085a	0.014711464
112	0xbc26699e	-0.010157017
113	0x3d34e0d2	0.044159718
114	0x3c2752d9	0.0102126235
115	0xbd36a8b5	-0.044594485
116	0xbc60626c	-0.013695341
117	0xbd5c6dca	-0.05381564
118	0xbd3d87dc	-0.046272144
119	0xbd48c9cf	-0.049020585
120	0x3d1fa0ca	0.0389717
121	0xbc2fde31	-0.010734127
122	0x3c866778	0.01640676
123	0x3c440e54	0.011966307
124	0xbd337094	-0.043808535
125	0xbbcc8606	-0.006241563
126	0xbd0686c5	-0.03284337
127	0x3c86d2c5	0.016457925
128	0xbd85759e	-0.06516574
129	0xbce8d80e	-0.028423335
130	0x3d480748	0.04883507
131	0x3d74685d	0.05966984
132	0x3d8d5f16	0.06902902
133	0x3cce291f	0.025166092
134	0x3c9370c0	0.0179981
135	0xbb95f085	-0.0045757913
136	0x3c2b0193	0.010437387
137	0x3ca61928	0.020275667
138	0xbccb7205	-0.024834642
139	0x3d2fdf4a	0.042937554
140	0x3d4afc47	0.049556997
141	0xbd887c30	-0.06664312
142	0xbd59bafc	-0.053156838
143	0xbd2c622a	-0.042085804
144	0x3bdc6842	0.0067262957
145	0xbdb9d77e	-0.09074305
146	0xbd4f66ba	-0.050635077
147	0x3d09a538	0.03360483
148	0x3d021ad4	0.031763867
149	0xbd3c9c85	-0.046047706
150	0xbd18279b	-0.037147146
151	0x3d151221	0.036394242
152	0xbc877993	-0.016537463
153	0xbd5db0d7	-0.054123726
154	0x3c0c8bfd	0.008578298
155	0xbdc902bb	-0.09814974
156	0xbd7ab6f0	-0.06120962
157	0x3c2d5040	0.010578215
158	0x3cbc6325	0.022996495
159	0x3d415d8e	0.04720836
160	0x3ce1cc29	0.027563171
161	0x3d3b430c	0.045718238
162	0xbd8081a6	-0.062747285
163	0x3c344250	0.011002138
164	0x3b650292	0.003494416
165	0xbd9c82e1	-0.07642151
166	0xbcb67dae	-0.022276726
167	0xbc357b63	-0.011076781
168	0xbc89d5f4	-0.016825654
169	0xbd90eef9	-0.070768304
170	0x3d8601c9	0.06543309
171	0xbb222eb5	-0.0024747078
172	0x3c788bf2	0.015170084
173	0xbd9b1809	-0.07572944
174	0xbc238073	-0.009979355
175	0x3d1bde3c	0.038053736
176	0xbd355021	-0.04426587
177	0xbc88527b	-0.016640892
178	0xbd87c119	-0.06628627
179	0xbc3f3335	-0.011669924
180	0x3d200a2d	0.039072204
181	0xbc9e62dd	-0.019334251
182	0x3d8d9832	0.069137946
183	0x3b71449f	0.0036814583
184	0x3ca7207c	0.020401232
185	0xbd476db2	-0.048688598
186	0x3bb3d9f4	0.0054886285
187	0xbaa78204	-0.0012779837
188	0xbd5d129f	-0.053972837
189	0xbc46383a	-0.012098366
190	0x3d0b9cb3	0.034084987
191	0x3c3224fd	0.0108730765
192	0xbd5c9c7a	-0.053860165
193	0x3d271b06	0.040797256
194	0x3d801b65	0.06255225
195	0xbc8cf5bc	-0.017207019
196	0x3c9d9156	0.01923434
197	0x3d6b14f0	0.057393014
198	0x3c76b5cd	0.015057993
199	0xbbd54cbe	-0.0065093925
200	0x3bec0a2b	0.0072033606
201	0xbcf64278	-0.030060992
202	0xbd8ee66e	-0.06977545
203	0xbd3899ec	-0.045068666
204	0xbd61a2b9	-0.055086825
205	0xbc8879d0	-0.016659647
206	0x3cb8bbe5	0.022550533
207	0x3c9becb7	0.019033773
208	0xbc859a87	-0.016309036
209	0x3ce7f0c7	0.028313054
210	0xbd8d05d7	-0.068858795
211	0xbd726e55	-0.059187252
212	0xbd937449	-0.07199914
213	0xbd879a20	-0.06621194
214	0xbd0a58a4	-0.03377594
215	0xbc884c97	-0.016638083
216	0xbda0ef8e	-0.078581914
217	0xbd900b31	-0.070333846
218	0xbd29d155	-0.0414594
219	0x3cdd108c	0.02698543
220	0x3bdf067a	0.006806192
221	0xbc1ee463	-0.009698006
222	0xbc1e1b22	-0.009650024
223	0x3d0096f5	0.031393964
224	0xbd08dbef	-0.03341287
225	0xbd179426	-0.03700652
226	0xbd83f579	-0.064433046
227	0xbce94d12	-0.028479133
228	0x3c2ac0e4	0.010421965
229	0xbd298934	-0.041390613
230	0x3d4ba532	0.04971809
231	0xbcc7c865	-0.024387548
232	0xbb8fb927	-0.0043860856
233	0xbda19a22	-0.078907266
234	0x3ca05034	0.019569494
235	0xbda9bfd7	-0.08288544
236	0xbce8367a	-0.028346289
237	0x3d6d0fad	0.057876278
238	0xbd6a468b	-0.05719618
239	0x3c601473	0.0136767505
240	0x3d11ce34	0.03559704
241	0xbcfd2f12	-0.030906234
242	0x3d660bb0	0.05616349
243	0x3c5d7c7c	0.013518449
244	0xbd6d3fb3	-0.057922076
245	0xbd3db36a	-0.04631368
246	0x3c8827f7	0.01662062
247	0x3cbf5b2e	0.023358908
248	0xbd4cd453	-0.050007176
249	0xbbbf1812	-0.005831727
250	0x3d13e0fb	0.03610323
251	0xbd48d54f	-0.049031552
252	0xbc66afb1	-0.014079974
253	0x3d6e0c3a	0.05811713
254	0xbbc4362b	-0.0059879026
255	0xbd4585f2	-0.048223443

sequential/conv2d_2/Conv2D f4 [64, 3, 3, 64]
0	0xb98edc4f	-0.00027248493
1	0xbc61c209	-0.013779172
2	0xbd3cdde5	-0.046110053
3	0xbd319e2c	-0.043363735
4	0xbd8cd60a	-0.06876762
5	0x3cf85ffb	0.030319205
6	0x3c380539	0.011231714
7	0xbd8f5ce9	-0.07000143
8	0xbca77683	-0.020442253
9	0xbd3b34da	-0.0457047
10	0x3d02f70a	0.031973876
11	0xbc691459	-0.014226043
12	0xbd67a99f	-0.056558248
13	0xbda76286	-0.08173089
14	0xbd81b256	-0.06332843
15	0x3d85bcc2	0.06530143
16	0xbcb3598c	-0.021893285
17	0xbd85402b	-0.0650638
18	0x3d38df0a	0.04513458
19	0x3c7d1920	0.015447885
20	0x3d73ccc8	0.059521466
21	0xbc964938	-0.01834546
22	0x3d37c907	0.04486945
23	0x3d24f0a4	0.040268555
24	0x3d006aca	0.031351842
25	0xbd8e544c	-0.06949672
26	0xbde75fb2	-0.11297549
27	0x3cfa5655	0.030558744
28	0xbc786f3f	-0.015163242
29	0xbd410327	-0.047122147
30	0xbd3e6a43	-0.046488058
31	0xbd15d283	-0.036577713
32	0xbd241051	-0.040054623
33	0xbc2436b4	-0.010022808
34	0xbcaed4ec	-0.021341763
35	0xbc819bce	-0.015821364
36	0xbd949dcc	-0.0725666
37	0xbd6737af	-0.05644959
38	0x3d4a8998	0.049447626
39	0xbccff842	-0.025386933
40	0x3bc76c69	0.0060859215
41	0xbdfa7890	-0.12230027
42	0x3d561c0c	0.05227284
43	0xbbe59bc9	-0.0070070964
44	0xbce57775	-0.028011063
45	0xbdde7a27	-0.108631425
46	0xbd10983a	-0.035301425
47	0x3b508cba	0.003182216
48	0xbd91be08	-0.07116324
49	0xbd802b92	-0.062583104
50	0xbd7a752b	-0.061146896
51	0x3cfd0d31	0.03089008
52	0x3d1aef29	0.037825737
53	0xbd96185c	-0.07328865
54	0x3d44cfc8	0.04804972
55	0xbdf7d79c	-0.12101671
56	0x3d235a46	0.039881013
57	0xbc97da05	-0.018536577
58	0xbdf15ebf	-0.117856495
59	0xbc3943ed	-0.011307699
60	0xbe0f5454	-0.13997012
61	0x3d3e5f82	0.046477802
62	0xbd6d669f	-0.057959195
63	0x3db35e2b	0.087581955
64	0xbce8370e	-0.028346565
65	0x3c8a478a	0.016879816
66	0x3c567f25	0.013091837
67	0xbd88ebb0	-0.06685579
68	0x3d6709af	0.05640572
69	0x3c917743	0.017757064
70	0x3ca10711	0.01965669
71	0x3d4e886b	0.050423067
72	0xbd8e86a5	-0.06959275
73	0x3dcf0687	0.10108667
74	0xbcd14864	-0.025547214
75	0xbbef156f	-0.0072962563
76	0xbdd9466a	-0.106091335
77	0x3e2a99f2	0.16660288
78	0xbda4062a	-0.08008988
79	0xbd74213f	-0.05960202
80	0x3d1dd21b	0.03853045
81	0xbc6270a6	-0.013820803
82	0xbbfe8d47	-0.0077683064
83	0x3d809422	0.06278254
84	0xbe03ba4b	-0.12864034
85	0x3d0077bb	0.031364184
86	0x3d11a6b5	0.035559375
87	0x3d6512b8	0.055926055
88	0x3da18fd8	0.07888764
89	0x3e011a3f	0.12607668
90	0x3d95ab30	0.07308042
91	0xbd83c0a7	-0.0643323
92	0x3d847df0	0.06469333
93	0x3d83b729	0.064314194
94	0x3cd25b14	0.025678195
95	0x3d609fa3	0.05483974
96	0x3cf87f15	0.030334035
97	0x3d06e988	0.032937557
98	0x3cb9032d	0.022584522
99	0x3cfb8d44	0.03070701
100	0x3d85af0d	0.06527529
101	0x3d823950	0.06358588
102	0xbdf969ce	-0.12178384
103	0xbd879213	-0.06619658
104	0xbcb73cd1	-0.022367867
105	0xbd0432d6	-0.032275043
106	0xbdb32aa1	-0.08748365
107	0xbd3f4369	-0.046695147
108	0xbd3e06ea	-0.046393313
109	0xbd1cf810	-0.03832251
110	0xbc38c39f	-0.011277108
111	0x3a6b2e85	0.00089714705
112	0x3c9f1dc0	0.019423366
113	0xbdbe09b8	-0.092791975
114	0x3d82b17d	0.063815095
115	0x3cee2fc3	0.029075509
116	0xbda3c5ab	-0.079966865
117	0x3df3084d	0.118668176
118	0xbd211258	-0.039324135
119	0xbc112f4b	-0.008861373
120	0x3d12a326	0.03580012
121	0xbdf87703	-0.12132075
122	0x39955afc	0.00028487283
123	0x3b39c5fb	0.0028346765
124	0x3de516e8	0.1118601
125	0x3d75f672	0.06004948
126	0x3d14da96	0.036341272
127	0xbb918eae	-0.0044420576
128	0xbc8a2704	-0.016864307
129	0xbd401ea0	-0.046904206
130	0xbd0d4643	-0.034490835
131	0xbd2bc7ba	-0.04193852
132	0x3d2997e0	0.041404605
133	0x3be97dec	0.0071256068
134	0x3d5d6250	0.054048836
135	0xbda828f5	-0.08210937
136	0xbc71c8cf	-0.014757349
137	0xbcd26f8a	-0.025687952
138	0x3caa247e	0.020769354
139	0x3ca01488	0.01954104
140	0x3ce6e072	0.028183196
141	0x3d19af1a	0.037520505
142	0xbcc33c08	-0.023832336
143	0xbb06898c	-0.0020528762
144	0xbca88baf	-0.020574419
145	0xbd93c309	-0.072149344
146	0xbc9e33aa	-0.019311745
147	0x3d9bfef1	0.076169856
148	0x3c6ff9d3	0.014646965
149	0x3d16a739	0.03678057
150	0xbd0f58c5	-0.034996767
151	0x3caaf6c7	0.020869626
152	0x3d9a4076	0.07531826
153	0x3d3c8e50	0.046034157
154	0xbc1c0e4e	-0.009524895
155	0xbd22d340	-0.039752245
156	0x3d2792eb	0.040911596
157	0xbd088fde	-0.033340327
158	0x3d9ae32b	0.0756286
159	0x3dc0dc95	0.09417073
160	0x3d123b41	0.03570104
161	0x3cd2bef1	0.025725814
162	0x3d817554	0.06321207
163	0x3d1a3951	0.037652317
164	0xbd06370e	-0.032767348
165	0x3d6ec0ac	0.058289215
166	0xbd09addd	-0.033613075
167	0x3bc8882a	0.0061197476
168	0xbda1b80a	-0.07896431
169	0x3d9111e9	0.07083494
170	0x3d813d04	0.06310466
171	0x3da73531	0.08164442
172	0xbd0aab90	-0.03385502
173	0xbd36a54a	-0.044591226
174	0xb98d62d5	-0.0002696725
175	0xbc7cec16	-0.015437147
176	0xbc59e309	-0.013298758
177	0x3d5aa812	0.05338294
178	0x3da8d4c7	0.08243709
179	0x3c827d9e	0.01592904
180	0xbd182d21	-0.037152413
181	0xbb551a18	-0.0032516774
182	0x3da101ff	0.07861709
183	0x3d8aaede	0.067716345
184	0x3d22531d	0.039630044
185	0x3d6abe76	0.057310544
186	0x3d195bce	0.037441067
187	0xbd71f489	-0.059071098
188	0xbd8a9666	-0.067669675
189	0xbcede924	-0.029041834
190	0xbba3aff5	-0.004995341
191	0x3d3263e3	0.04355229
192	0xbc884e4c	-0.016638897
193	0xbcb8a5d3	-0.022540009
194	0x3c8d358b	0.017237445
195	0x3ca6bc04	0.020353325
196	0x3d7931d8	0.06083855
197	0xbbcb3e42	-0.00620249
198	0x3d36335a	0.044482566
199	0xbe141eb8	-0.14464843
200	0xbcbfca51	-0.023411902
201	0x3ab6da56	0.0013950567
202	0x3d795625	0.06087317
203	0x3b5f90e1	0.0034113454
204	0xbdbae0fc	-0.091249436
205	0xbda2854b	-0.0793558
206	0x3b43060e	0.0029758248
207	0xbc4a9cc2	-0.012366476
208	0xbd921ba3	-0.071341775
209	0x3cc18b5d	0.023626024
210	0xbc43f013	-0.011959094
211	0xbd57760b	-0.05260281
212	0xbd7a55e8	-0.061117083
213	0x3cfbbcd6	0.030729692
214	0x3d12eeaf	0.035872158
215	0xbd5ba344	-0.0536225
216	0xbddcb10d	-0.10775957
217	0xbdbfd257	-0.09366291
218	0xbcbc89f1	-0.023014994
219	0xbc634007	-0.013870246
220	0xbe092221	-0.13391925
221	0x3d5f23e4	0.054477587
222	0xbd22d321	-0.03975213
223	0xbe4079e4	-0.18796498
224	0xbd0de113	-0.034638476
225	0x3cf84c26	0.030309748
226	0xbcc6a06d	-0.024246419
227	0x3d7b1c43	0.06130625
228	0xbd1aaa57	-0.037760105
229	0xbd3d5d19	-0.046231363
230	0xbd7b233f	-0.06131291
231	0x3d5942e4	0.053042307
232	0xbd16e941	-0.036843542
233	0x3d61b42a	0.05510346
234	0xbd59bdb5	-0.053159434
235	0x3c97441d	0.018465096
236	0x3d15cb89	0.03657106
237	0xbcc3434f	-0.023835806
238	0xbd8b1049	-0.067902155
239	0xbcbeffdd	-0.023315364
240	0xbc9f1987	-0.019421352
241	0xbd90b978	-0.07066625
242	0xbcb7f98b	-0.022457859
243	0x3d1ce53b	0.03830455
244	0x3d26d1ee	0.04072755
245	0xbde47993	-0.11156001
246	0x3d866768	0.06562692
247	0xbdc31422	-0.095253244
248	0xbd1c7be4	-0.03820409
249	0xbdb39aa7	-0.08769732
250	0xbd8951d6	-0.06705062
251	0xbda397bc	-0.079879254
252	0xbdf58f4c	-0.11990222
253	0x3c9fa525	0.019487927
254	0x3cb37be0	0.021909654
255	0xbca2daea	-0.019879777
